my_network.pth (torch, 2152 bytes, 3 tensors)

layer1.weight f4 [15, 1]
-0.8819084 -0.5743395 -0.85317886 -0.2583152 -0.62041914 0.21320714 -0.26087868 -0.093781754
0.49219707 0.9039617 0.78660685 -0.24656403 -0.6026294 1.1966189 -0.8823322
00000000: c0c4 61bf ea07 13bf ee69 5abf e441 84be
00000010: cad3 1ebf f952 5a3e e491 85be a610 c0bd
00000020: 4101 fc3e 096a 673f 115f 493f 487b 7cbe
00000030: ec45 1abf cf2a 993f 86e0 61bf

layer1.bias f4 [15]
-0.28237295 -0.81841004 -0.6520393 -0.27829468 -0.7592348 -0.27072257 0.4623909 0.33919218
-0.23162757 -0.4267679 0.30726716 -0.70827055 0.37441814 -0.32081318 0.5035583
00000000: 3093 90be 5283 51bf 0cec 26bf a47c 8ebe
00000010: 365d 42bf 269c 8abe 80be ec3e 99aa ad3e
00000020: c72f 6dbe 5281 dabe 1f52 9d3e 3851 35bf
00000030: bcb3 bf3e a041 a4be 32e9 003f

layer2.weight f4 [1, 15]
0.18281189 -0.14023991 -0.1884999 0.2367199 -0.13118784 0.15375257 -0.19867389 -0.10641304
0.2359934 0.4897149 0.26605457 -0.14132115 0.24062502 0.5227483 0.19005713
00000000: 0a33 3b3e 0d9b 0fbe 1e06 41be b466 723e
00000010: 1b56 06be 5071 1d3e 2b71 4bbe 14ef d9bd
00000020: 41a8 713e e9bb fa3e 4e38 883e 7eb6 10be
00000030: 6866 763e d5d2 053f 569e 423e
